example/gazebo_limo/pretrain_limo/model_5000_bak.pth (torch, 24610 bytes, 18 tensors)

MLP.0.weight f4 [32, 2]
00000000: cefe 773e 4d30 8f3e aab2 b63e 726c c33e
00000010: 3501 a03d 5fa6 96bc b96d e3be 5be0 443e
00000020: 9c2d edbe 795f d93e 2f52 97bd ed62 693e
00000030: bf9e 6d3d 1f5a 0a3f b6ac 0cbe 0784 d6be
00000040: 0c7f 04bf b0b6 d8be 01e0 a23e 0b43 63bd
00000050: f961 bbbe efdf a3be d8a5 823e 65d4 b83e
00000060: f3ff 7cbe 0eaf 6c3e cd92 f8bd 3e11 1a3e
00000070: c33a c1be dc65 4cbe 4be3 11be eb48 c33d
00000080: 3bd4 c23c c668 283e 6e91 e63e b706 7fbe
00000090: 5d10 d03e efbd a73e f716 14bd 22b7 f13d
000000a0: b2bb 03be 1289 94be 2291 2abe 01d2 dcbe
000000b0: 2c9e 9a3e e4a1 2ebe 3534 af3e 5a34 433e
000000c0: 2f63 e0bd f409 7dbe 80ed 7dbe a1ea 0e3e
000000d0: b62a 00bd c2a2 d03e 3245 85be 1c58 983e
000000e0: 265d a3be 2d61 713e 2cd8 01bf d16c 913e
000000f0: c874 393e 4e7d ab3d d32e c3bd 3a61 e8be
0.24218294 0.27966538 0.35683185 0.38168675 0.0781273 -0.018389879 -0.4441965 0.1922621
-0.4632386 0.42455652 -0.07388722 0.22791643 0.05801272 0.54043764 -0.13737759 -0.41897604
-0.5175636 -0.4232688 0.31811526 -0.05548386 -0.36598185 -0.32006785 0.25517154 0.36099544
-0.24707012 0.23113653 -0.12137375 0.1504564 -0.37740144 -0.19960731 -0.14246862 0.095353924
0.02378284 0.16446218 0.4503283 -0.24904905 0.40637484 0.32762095 -0.036154713 0.11802508
-0.12864569 -0.29010826 -0.16656926 -0.4312897 0.301988 -0.17053944 0.34219518 0.1906294
-0.10956418 -0.24710828 -0.2479763 0.13956691 -0.031290732 0.40749174 -0.26029354 0.29754722
-0.31907004 0.23572226 -0.5072048 0.28403333 0.18110955 0.08373509 -0.095304154 -0.45386678

MLP.0.bias f4 [32]
00000000: 7b43 703d dac1 8fbc f861 bf3c 1615 993b
00000010: f0d8 46bd b79b 43bb 15fa 7bbd b7d3 a9bd
00000020: 48db 4ebd c59c 96bd fc4c b13d 3918 c53b
00000030: 3773 44bd 2049 9fbd 13f5 143e d1b3 3dbb
00000040: e984 213e e9eb 8d3d 5dfc 653d 6ad4 ad3b
00000050: f208 8cbd f922 053d abda 2b3d b74d 823d
00000060: 1098 16be 2b72 bbbd eea4 9cbd 146c 3b3e
00000070: dad3 75bd 9184 00be 5620 dcbc 0ca3 dd3d
0.058658104 -0.01754849 0.023362145 0.004671703 -0.04854673 -0.0029847452 -0.061517794 -0.082923345
-0.05050209 -0.0735412 0.08657262 0.0060148505 -0.04796144 -0.07777619 0.14546613 -0.002894629
0.15773357 0.06929762 0.056148876 0.0053048627 -0.06837644 0.032504056 0.041956585 0.06362479
-0.14706445 -0.09152635 -0.07648645 0.18302947 -0.06001649 -0.1255057 -0.026870888 0.10822114

MLP.1.weight f4 [32]
00000000: 4bf8 243f 934f 123f a0c5 753e 8fdf 2f3f
00000010: 2b9f fc3e 28bf a33e 2f3c 343f 8b08 163f
00000020: 822f e63e e956 263f 0b7d d73e 56ef e03e
00000030: c591 da3e 97ab 5b3e 06a9 c53e 9a6f 603e
00000040: e124 023f a077 c73e 43c0 0c3f 43dd 673d
00000050: b11f 0c3f 89ca 0c3f 2f6d a83e dc68 253f
00000060: caa0 f83e bba8 b73e b38d 0e3f 82d8 e53e
00000070: efa1 0c3f 7356 163f 24d2 213f 98c6 253f
0.64441365 0.5715267 0.24001169 0.687005 0.49340186 0.31981778 0.7040433 0.58606786
0.4495812 0.64976364 0.42087588 0.439326 0.42689338 0.21452175 0.38605517 0.21917573
0.5083752 0.38958454 0.5498087 0.056607496 0.5473586 0.54996544 0.328958 0.6461313
0.48560172 0.3587092 0.55684966 0.44891745 0.5493459 0.5872566 0.63211274 0.64756155

MLP.1.bias f4 [32]
00000000: c361 403d eb94 b83c 657b 54bc a5be f5bc
00000010: b980 8a3a 66fb 3c3b 0d84 6cbc 3aa0 5dbc
00000020: 3626 a43c dd48 ecbb 9b8c 453b 658c 2a3c
00000030: 4bea 25bc 6472 013c 0604 2e3c f74f aa3c
00000040: 82dd 923c 6b49 ea3c 1851 a93c 9ca3 7d3c
00000050: a50a c2bb 115f ccbb 7a8a 36bc 1109 bf3b
00000060: 3828 7dbc d7f6 18bb 8051 893b f513 fcbc
00000070: b9b3 20bb 30ab 9eba 905a 2d3c 7deb 433d
0.046968233 0.022531947 -0.012968873 -0.029998133 0.0010566927 0.0028836369 -0.01443578 -0.0135269705
0.020037752 -0.0072108344 0.0030143622 0.010409449 -0.010126661 0.007900808 0.010621076 0.020790083
0.017927889 0.028599462 0.020668551 0.015480902 -0.005921679 -0.0062369187 -0.011141414 0.005829938
-0.015451483 -0.0023340487 0.0041906238 -0.030771235 -0.0024521186 -0.0012105461 0.010580674 0.047832

MLP.3.weight f4 [32, 32]
00000000: 7163 463d 634f 8f3d 4b81 8a3c 66f5 febc
00000010: 9861 243d c0e7 58bb eee0 31bd c267 ecbd
00000020: 9a08 013d f5d8 98bd 6581 e8bc 24f9 2cbd
00000030: 4849 47bd f788 7bbc da64 7e3d 3698 413b
00000040: 0e71 dd3d 809d 1abd f1f7 f73d 424f 463b
00000050: a65a 17bd ab15 c9bc 7d3d 29bd cd2c fa3d
00000060: 1b0a b0bd 2d72 3ebd 75a5 8cbb 69bb 823d
00000070: c564 9abd d797 54bd f318 b83a abc8 903d
00000080: b96d 00be d606 b93d afc9 10bd ac92 183e
00000090: 983f 1d3e 3021 a7bd 4e1a b5bd e347 2fbd
000000a0: 2489 ef3d f673 babd 6e9c 8d3d b085 b73d
000000b0: 27c3 c73c d861 863c 0003 843d 09f8 53bd
000000c0: e1a4 913d 13c5 5dbc 4e0f bcbd 4e15 80ba
000000d0: ea9b a2bd 69c7 d7bd febb 17bd 38bb 60bd
000000e0: 0143 c83d 1d74 563d 5640 9bbd 14fe a13d
000000f0: 29ec 29bb 744e 0b3e 3d54 553d 9fca 57bd
00000100: 35b1 023d 67da 323d daa7 dd3a d38f 2b3c
00000110: f534 3d3d fec5 243d 41ab af3d ed9b 063d
00000120: fe23 85bd c25d 1fbd 5a26 c0bb 2aac b03c
00000130: 94c6 f43c ad1a 2ebc bdce b43d c27c d1ba
00000140: 7cba 9e3d 660e b63d 8ddb c53d 19a3 8b3a
00000150: ad7b 36bd 9767 3e3d af9e dbbc 36d8 a93d
00000160: 4e08 133c 487d b3bc 5ba8 a83c dd45 5a3c
00000170: e4a8 ba3b d164 c2bd b641 033d a8c4 023d
00000180: bb0a 90bd 27bb ca3d fb8a 3dbd 3ea6 b03d
00000190: 9cd1 6cbd 429c 823a 2abe 343e 952a e6bc
000001a0: e058 9abc ac0d 943d 7041 a73d 297b b8bd
000001b0: b379 003e 798a ab3d 5904 1cbe bab6 b5bb
000001c0: 5f3b d03d a2e6 03be 6a5d 5d3d 5f62 26bd
000001d0: d64d 10bb 3002 783d ce27 6a3c bd20 073e
000001e0: f5a6 c53d a34e 38bd 46b6 ed3d ae25 073e
000001f0: 796b d93d 370d 233c 6527 37bd 4152 38be
00000200: a2e1 04ba 7e66 243c 89c3 5c3d c594 e0bd
00000210: 71ec 9d3d 1670 ccbb 75ef 23be 8ef1 353d
00000220: 691c c83d 33f5 f1bd 7598 85bd e628 3cbd
00000230: cf5a 88bd c514 0e3d 88db 333d 2f0f 62bd
00000240: 6043 78bd 7a39 483d 0694 b5bb 9eeb 8dbb
00000250: 8f7e 053e 6495 0f3d 6974 a73c 71c0 abbd
00000260: 2e79 173e f846 c2bc b769 f63c 6103 42be
00000270: bd0f 7a39 136d 07be 786b 073e c266 033b
00000280: e85a 8c3d e75f f73d d3ec 6a3d 8cb7 c7bd
00000290: 422d cc3d 44e4 3bbd 87f8 463d c1e1 a13d
000002a0: 03ec 693d a86a a0bd c97a bbbd a400 0b3d
000002b0: 687c c1bd c20a a63c 02cc afbd 08e0 2fbc
000002c0: ba60 fb3c 47b7 8e3d 0659 b93d 5eb3 eb3a
000002d0: c6a8 89bd b2a9 2fbd 7ea3 f33c 8d87 ea3c
000002e0: f137 2a3d b5cb a0bd 5616 963d f3fc b1bd
000002f0: fa95 9b3d 1d7c 52bd 9534 bf3d ba73 90bc
00000300: ac50 0e3e fe31 033e 46bf 09bd 1d53 dcbd
00000310: b730 3abd 924e 893d 2ba5 da3d 5d52 1bbe
00000320: 873f 273d ee5b 343d 5ac2 843d 0ffd 8abd
00000330: 871e bb3d bbaa 603c a63e 6dbd 09e1 863d
00000340: 076e aebd 50a8 123e 4e33 0b3e f9be 43bc
00000350: 6d4a 083e 4d56 31bc a72f b1bb a9bd 053d
00000360: 9aa8 553d 077c 09bd 7057 0c3e 15ab 0fbe
00000370: 2fcc d8bc 463d 20be 8d73 963d e5ff 033e
00000380: 675a 113d 6f94 efbd e950 85bc 9b58 9d3d
00000390: a55d ee3d 9b14 b93d b11c a3bc deda 5c3c
000003a0: d866 c53b f04a 14be f24e 19be fe41 a2bd
000003b0: c1f3 47bc 7887 e83c 171b fdbb 8890 4c3d
000003c0: 504f abbc 1afc 1ebd b28d 1bbe 3297 efb9
000003d0: 215f 823d dacc b7bd 89f6 18bd 1749 8c3d
000003e0: 5836 573c 5a97 6e3d 401d 96bc 048b 35bd
000003f0: cc91 d93b ba89 59bd 800c b0bd 9560 70bd
0.04843468 0.06997564 0.016907355 -0.031122874 0.040132135 -0.0033097118 -0.0434274 -0.11543228
0.031502344 -0.07463256 -0.028382013 -0.042229787 -0.04865387 -0.015352479 0.0621079 0.0029540188
0.10812579 -0.03774786 0.12107838 0.0030259644 -0.036951683 -0.024546465 -0.041318405 0.12215576
-0.085956775 -0.046495605 -0.004292185 0.06383402 -0.075387515 -0.05190262 0.0014045521 0.070695244
-0.12541856 0.09034507 -0.03534859 0.14899701 0.1535629 -0.08160627 -0.08842908 -0.042793166
0.116960794 -0.09104149 0.06914602 0.08961046 0.024385048 0.016404077 0.06445885 -0.051750217
0.07111526 -0.013535756 -0.09182607 -0.0009771974 -0.079398945 -0.10536081 -0.037044518 -0.054866046
0.09778405 0.052356828 -0.075806305 0.0790979 -0.0025928116 0.13604146 0.05208229 -0.05268347
0.03190728 0.043665316 0.0016910986 0.010471302 0.046193082 0.040227883 0.08577586 0.032863546
-0.065010056 -0.038907774 -0.005863947 0.02156647 0.029879846 -0.010626477 0.08828495 -0.0015982615
0.07750413 0.08889465 0.096610166 0.0010653465 -0.04455154 0.04648551 -0.026809065 0.08293192
0.008974148 -0.021910325 0.02058809 0.013322321 0.005696403 -0.094918855 0.03204509 0.031925827
-0.07033297 0.09898978 -0.04627512 0.08625458 -0.057817087 0.0009964781 0.17650667 -0.028096477
-0.018841207 0.0722917 0.08166778 -0.09007866 0.12546425 0.08376021 -0.15236033 -0.0055454643
0.10167574 -0.12880948 0.054044165 -0.040621158 -0.002201905 0.06054896 0.014291717 0.13196082
0.09650985 -0.04499687 0.116070315 0.13197967 0.10616202 0.009951881 -0.044715304 -0.18000127
-0.00050690223 0.010034202 0.053897414 -0.109658755 0.07711113 -0.0062389476 -0.16009314 0.044419818
0.09771044 -0.11814346 -0.065232195 -0.04593744 -0.06657945 0.034687776 0.043910533 -0.05519026
-0.06061113 0.04888294 -0.0055413274 -0.0043310663 0.1303656 0.03505458 0.02044125 -0.08386315
0.1479232 -0.023715481 0.030079706 -0.18946601 0.00023847721 -0.13225202 0.1322459 0.0020050262
0.068532765 0.12078839 0.05735476 -0.09751806 0.0996957 -0.045871988 0.048576858 0.07904387
0.057109844 -0.07832843 -0.09154279 0.033936158 -0.09447557 0.020268802 -0.08583833 -0.010734566
0.030685771 0.06968551 0.09050183 0.0017982533 -0.06721644 -0.042886443 0.029741045 0.028629089
0.041557256 -0.07851354 0.07328479 -0.08690824 0.07596965 -0.051387895 0.09336201 -0.017633308
0.13897961 0.1281204 -0.03362968 -0.1075804 -0.045456614 0.06704439 0.106760345 -0.15168138
0.04083207 0.044032983 0.06482382 -0.06786548 0.09136682 0.01371258 -0.057921074 0.06585891
-0.0851708 0.14322019 0.1359379 -0.011947387 0.13309641 -0.010823798 -0.005407292 0.032651577
0.052162744 -0.033565547 0.1370523 -0.14030106 -0.02646455 -0.15648374 0.07346258 0.12890585
0.035486605 -0.11698233 -0.016273933 0.07682916 0.11638955 0.09037133 -0.019911142 0.013479916
0.006024223 -0.14481711 -0.14971521 -0.07922743 -0.012204112 0.028384909 -0.0077241766 0.049942523
-0.020911843 -0.03881464 -0.15190771 -0.00045698282 0.06365801 -0.08974619 -0.03734449 0.06849878
0.013135515 0.05824981 -0.018324494 -0.04432203 0.006639695 -0.053109862 -0.08596134 -0.058685858

MLP.3.bias f4 [32]
00000000: 4e4b 0cbd 8dc0 ccbd e3bd 86bd 40e8 993d
00000010: 4c9a 213d 9c67 b3bd b536 d3bc 0e44 e43d
00000020: 1e4c 083e 0b50 02bd 7a62 4dbd 08be 3abb
00000030: 6242 423d 47bc e4b9 4814 1c3d 8bc7 853d
00000040: be96 9c3d 8cdc 98bc b0c7 0ebe c5f0 85bc
00000050: 5c41 96bd dd3b 9cbd b7e8 8c3d 9c2f 763c
00000060: 6c53 d23c 2d12 a03b c78f b43c a13f f2bd
00000070: 320d 09bd 0dab cfbd 9509 843d 0142 c9b3
-0.034251504 -0.09997664 -0.06579187 0.07515001 0.03945379 -0.08759996 -0.025782922 0.11145793
0.13310286 -0.031814616 -0.050142743 -0.0028494615 0.04742659 -0.00043627826 0.03810528 0.065322004
0.07645939 -0.018659852 -0.13943362 -0.01635016 -0.07336685 -0.076286055 0.06880324 0.015025999
0.025674544 0.004884979 0.022041215 -0.118285425 -0.03345985 -0.10140047 0.0644714 -9.371798e-08

MLP.5.weight f4 [32, 32]
00000000: 3656 dabd ae34 24be 4cca 07bd 122e ff3d
00000010: d1c7 db3b 1e26 90ba 516b 17be 3190 bb3b
00000020: 59f3 2bbe 2132 30bd b25c cabc 5c90 c43d
00000030: c9ec 9b3d 9a92 b238 1d91 a9bc c6a5 9d3d
00000040: 4e5f ec3c 2cd4 0c3d 118c d63d c82b fa3d
00000050: bb38 3b3d b579 8a3d e9c6 683d f0df 08be
00000060: 7db0 15be 9885 4a3c 6b8c 1f3c c9f1 c63d
00000070: beb1 76bd 29a2 f6bd 8199 b03b 6072 4133
00000080: 03c9 19bd 7df6 99bd 09cb c73b 063d 89bd
00000090: f62a e8bc bcb2 bdbc 5155 8cbd 090d 9d3c
000000a0: 238a 0d3d c6a3 0e3c 6a6d fd3a f54b 2b3c
000000b0: 4aea 423d 86a6 1037 44a9 ce3c dd55 36bd
000000c0: b414 ce3c 4d88 82bd 3310 76bc 4b13 77bd
000000d0: 4806 94ba bb71 d4ba c065 ba3d 4260 563b
000000e0: 19ee 00bd 50bb 553b 6b35 883c bbe1 cbb9
000000f0: c0e3 683d e2b8 dc3c f513 54bd a0f9 dd1f
00000100: 1a0f 8c3d 7969 bdbd 577c 753d 7b71 573d
00000110: e9aa d4bd e778 c03d 31a8 e13d 4f90 dfbd
00000120: eaaa 57bb 6f54 c9bc fa1e 1dbd 3f9c c33b
00000130: b69a 7a3c 3be0 f7b7 5dd1 35bd 4566 b83d
00000140: 4e42 bbbd efd2 86bc 70be 4bbc 745d cebd
00000150: 2d82 633b 8a62 80bc d8a7 f1bd 97fd 0f3d
00000160: a4fe 1e3d 26e5 33bd 3e8c 80bc ab63 0ebd
00000170: bfa4 21be 52ac 853c 76fb babd 0e3a 9db2
00000180: de86 9abd d50a af3d dc46 1abb 8b2b 2cbd
00000190: 6f0b a6bc ed43 e8ba 9b8c 173d b8e1 8a3d
000001a0: 7515 923c 061a c53b 3eae 13bc 5166 55bc
000001b0: 73c3 59bd 9711 8635 d207 e23c 7980 72bd
000001c0: fd2f cabc 2fdf 10bd 1b18 803b 4fde 2f3b
000001d0: 8f16 273c 19ae 28bb 2fe1 7bbd 1a99 b2bc
000001e0: 5ecd 293b e338 1f3b b5dc 0cbc e5f5 1cbc
000001f0: 7d8d efbc 2102 b73b 1cba a03c 0db1 b91a
00000200: d387 bdbd 3e3c 053d 9bb0 52bd d99d 6fbc
00000210: e860 e83c 2aeb aabd 9a39 0c3d 002e 5b3c
00000220: 03e9 35bc d081 9abb e98b 2b3c 2ba0 81bc
00000230: b6bf acbd 46cd 95b6 1a52 943d dfef a53b
00000240: 20f3 e8bc a93b c3bd d2be c1bb f625 b1bd
00000250: d8c9 2a3d 101a 993c a440 c23d 7fc5 b83b
00000260: 6ba3 adbd dc79 45bd 0011 cebc b619 223b
00000270: b133 f13b f8b5 a63c 7431 8cbc f4a0 1124
00000280: bf26 083c 37af 0dbd 87cd 19bb c4de 15bc
00000290: a89b a93d 0cec b93d b500 93bd 7e06 dc3c
000002a0: f67e 0a3e d01f e0bd ae17 303d 0dc7 18bd
000002b0: 9f53 84bd c3ef e8b7 5745 dd3c 7ddd 953c
000002c0: 9b6a 133d 41f6 27be 76ae 4d3d cb23 493c
000002d0: 6cfe 9f3d 26c9 24bd 90d0 3a3d 27b4 97bd
000002e0: 79c2 4d3d 62b7 6d3c ff5d db3b 1c2f c93d
000002f0: 4dcf e3bc e262 f6bb 4888 023e cc8f 1428
00000300: 054e 1dbd 233e d13d 354a e4bd c5ce 49be
00000310: 8a11 973c 6896 883c 6167 ac3d bd2a 2ebd
00000320: a935 033e d6a6 71ba 698d 9c3d 9fa7 96bc
00000330: 24ad 993d e6da f837 bd24 13be 6992 25be
00000340: 2889 333d b2ee 30bd 44c4 71bb ce24 eabd
00000350: 3432 b3bb 5910 763c 7963 63bd 1e7f 883d
00000360: 8e29 d7bb c0f5 ddbd b642 cebd ecdc 813d
00000370: efa5 103d 5b32 4dbd d528 a93d 7cd7 9e30
00000380: 8bcb 663d a16d 1f3d 29a8 4dbc 3e81 803d
00000390: 53e0 01be 99a7 8c3d 7d34 c73d bd23 07be
000003a0: 1bb3 d43d e6dc f8bd 6575 a03b ac11 82bc
000003b0: 7a8f 45bc 0c8f 4bb8 4169 e3bc e77a 36bd
000003c0: 6de5 113e f34c 303e a723 343d b85e 8c3d
000003d0: 019f b23d f46b d33d 6614 cebc 15dd 7cbb
000003e0: 4dd3 8d3d 8d9c 96bc eedb 183d e1db fdbc
000003f0: f3d0 a23c a763 bbbd 5b6c 373d 034a d2ab
-0.10660975 -0.1603572 -0.03315191 0.12459959 0.0067071696 -0.0010997688 -0.14787032 0.005723976
-0.16792049 -0.043016557 -0.024702404 0.09597847 0.076135226 8.515008e-05 -0.020699078 0.076976344
0.028854039 0.03438203 0.10475934 0.12215382 0.0457084 0.06761495 0.05683032 -0.13366675
-0.14618106 0.012360953 0.009738068 0.097140856 -0.060228102 -0.12042648 0.005389393 4.5040338e-08
-0.037545215 -0.07517717 0.0060972017 -0.067010924 -0.028340798 -0.023156516 -0.0685221 0.019171255
0.034555566 0.008706039 0.0019334976 0.010455121 0.047586717 8.621841e-06 0.025227197 -0.04451548
0.025156356 -0.063736536 -0.015018511 -0.060321134 -0.0011293376 -0.0016208211 0.091014385 0.0032711183
-0.031477068 0.0032612868 0.016627034 -0.0003888736 0.056857824 0.026943628 -0.051776845 9.401011e-20
0.06838818 -0.09248633 0.059933033 0.052598458 -0.10384161 0.0939806 0.11018408 -0.109161966
-0.003290827 -0.024576394 -0.03835962 0.0059695537 0.015295675 -2.954911e-05 -0.044389118 0.09003881
-0.09143506 -0.016458003 -0.012435541 -0.100764185 0.0034715042 -0.015671987 -0.11799592 0.03515395
0.038817063 -0.043919705 -0.015691873 -0.03476302 -0.15785502 0.01631752 -0.091299936 -1.8303606e-08
-0.07545255 0.08546988 -0.002354077 -0.042033713 -0.020269124 -0.0017720439 0.036999326 0.06781334
0.017832497 0.006015065 -0.009013711 -0.013024882 -0.05316491 9.988897e-07 0.02759162 -0.059204552
-0.024681086 -0.035369094 0.0039091236 0.0026835387 0.0101982495 -0.0025738536 -0.06149405 -0.02180152
0.0025909762 0.0024295382 -0.0085975425 -0.00958011 -0.029242272 0.0055849706 0.019619994 7.680025e-23
-0.09254422 0.032528155 -0.051437955 -0.014625036 0.028366521 -0.08345635 0.03423462 0.0133776665
-0.011102918 -0.004715182 0.010470369 -0.015823444 -0.084350035 -4.464443e-06 0.07242222 0.0050639953
-0.028436244 -0.09532864 -0.00591264 -0.086498186 0.0416964 0.018689185 0.094849855 0.0056387777
-0.08478435 -0.048211917 -0.02515459 0.0024734563 0.0073608984 0.020350441 -0.017113425 3.1578196e-17
0.008310019 -0.034590926 -0.002346845 -0.00914735 0.08281642 0.090782255 -0.07177869 0.026858564
0.13524994 -0.10943568 0.042991333 -0.037299205 -0.06461262 -2.7768203e-05 0.027010603 0.01829409
0.03599034 -0.16402532 0.050215207 0.0122766 0.07812199 -0.040230893 0.045609057 -0.07407408
0.05023429 0.014509054 0.006694555 0.098234385 -0.02780881 -0.007519112 0.127473 8.246831e-15
-0.038404483 0.1021693 -0.11146966 -0.19707783 0.01844098 0.016673282 0.084181555 -0.042521227
0.12813438 -0.0009218281 0.07644159 -0.018390475 0.07503727 2.9665836e-05 -0.14369483 -0.16169132
0.043831974 -0.043196388 -0.0036890665 -0.11432801 -0.005468631 0.015018546 -0.055514786 0.06664871
-0.006566233 -0.10837889 -0.10071318 0.06340966 0.035314497 -0.05009685 0.08259741 1.1557257e-09
0.056346457 0.03892291 -0.0125523 0.06274651 -0.12683229 0.06867904 0.09726808 -0.13197227
0.10385724 -0.12151508 0.004896807 -0.015877567 -0.012058133 -4.8532194e-05 -0.02776015 -0.044550803
0.14247675 0.17216854 0.043979313 0.06854004 0.08721734 0.10323325 -0.025156211 -0.0038583924
0.06925068 -0.018385196 0.037319116 -0.030988635 0.019875025 -0.091498666 0.04478107 -1.494194e-12

MLP.5.bias f4 [32]
00000000: 0a59 1ebc 2201 cfbd b656 9c3c 099c 943d
00000010: a7bc a43d c1b8 4fbd 4826 8dbb 3d58 07be
00000020: 17c1 173c 3415 e3bd e7d5 203d addd 0cbe
00000030: 5d80 18bd d74b 1b3d c17e bb3c 387d fdbd
00000040: 79f1 f4bd 903b edbd 91b3 053c 92bd a9bd
00000050: 8002 debb 9c22 8a3d f8c3 abbc b2b1 033c
00000060: f62c a8bd 8921 3ebd ec24 e13c 28c9 0bbe
00000070: 1452 11be 8bf8 8ebc dde2 88bd d335 f2bd
-0.009664783 -0.10107638 0.019084316 0.07256324 0.08043795 -0.050713304 -0.004307542 -0.13217254
0.009262345 -0.110880286 0.039266493 -0.13756438 -0.03723179 0.037914123 0.02288759 -0.12377399
-0.1196012 -0.11583626 0.008160488 -0.08288111 -0.0067752004 0.067448825 -0.020967469 0.008037971
-0.082117006 -0.0464187 0.027483426 -0.13650954 -0.14191467 -0.017452499 -0.06683896 -0.118266724

MLP.6.weight f4 [32]
00000000: ac6e 093f 1fda d13e 148b 0f3f fdaf 8d3e
00000010: 018e c93e c562 d93e 9d46 273f e6ef d33e
00000020: 10a0 403e a354 6f3e 5495 993e 535d 0a3f
00000030: 5f04 eb3e a9ce f23e 1085 e63e 0517 5e3e
00000040: 8c94 073f 4c47 1e3f 423b f63e d7d2 103f
00000050: 531c 103f 8982 993e 3025 b43e 7158 203f
00000060: 4cf8 b63e e595 c83e 4cfe 1a3f 0210 eb3e
00000070: abe5 093f 55ca 763e d9a1 033f 373e f53e
0.53684497 0.40986726 0.5607159 0.2767333 0.39366153 0.42458168 0.6534212 0.41393965
0.18811059 0.2337213 0.2999674 0.5404865 0.45901772 0.47423294 0.45023394 0.21688469
0.5296104 0.6182754 0.48092085 0.56571716 0.5629322 0.29982403 0.35184622 0.6263495
0.3573631 0.3917686 0.60544276 0.4591065 0.5386607 0.24100621 0.51418835 0.4789903

MLP.6.bias f4 [32]
00000000: 4bdb 12bc e39a b4bc 0445 dcbc f15b 6a3c
00000010: dc40 923a e39f c33a a74c ceba ce96 023c
00000020: d355 9ebc b8f8 75bc 00f9 8c3c 1f90 52bc
00000030: 7616 183c 4252 803c 2ff5 cd3a f28a 49ba
00000040: 0f25 3b3b c9c3 363c a8e6 b7bb f9c1 3cbc
00000050: 9448 91bc 0dc6 243c 6feb c13c 959f f5ba
00000060: 2113 703c c5ca 5cbb ad17 30bc 90d7 783a
00000070: 4939 6dbc 2640 c0bc 1bf2 1a3c 68d8 ae3c
-0.008963416 -0.022046512 -0.026888378 0.014304147 0.0011158246 0.0014924969 -0.0015739397 0.007970525
-0.019328034 -0.015012912 0.017208576 -0.012851744 0.009282699 0.015664224 0.0015713329 -0.0007688246
0.0028556024 0.011155077 -0.005612213 -0.011520856 -0.017734803 0.010056985 0.023671834 -0.0018739576
0.014652998 -0.0033690196 -0.010747832 0.00094925705 -0.01447899 -0.023468088 0.0094571365 0.021343425

MLP.8.weight f4 [32, 32]
00000000: 8c45 e23c 4347 023d 3e86 813d 25ab f8bc
00000010: f83d d8bc 0a7c 3d3d 5bbd f0bd 14cb 023d
00000020: 98e0 913a 66ac 6dbc 6628 94bc 4ce2 b2bc
00000030: 402c 223d 5bd8 9fbd d04e 44bb d217 a93c
00000040: 391c 133d f042 633d a993 8bbd dfc8 3abc
00000050: 4170 c03d 5119 48bd 32c9 df3a 8c48 c43c
00000060: 9d07 2abc 6d39 593c 715d d13c 89b8 e939
00000070: 12e6 83bd 23f5 a63b 7d0b 3dbd eff8 d2bb
00000080: 6d23 a63d cd74 98bb c535 c43d 81f2 d3bb
00000090: d805 013e e8ca 173e 01dc c83c 8b97 68bb
000000a0: c2fe aabd d25a 43bd e89a 023e 5a5f dbbb
000000b0: 080e 6a3d 190c d83b 5853 96bd 9aa6 d7bc
000000c0: 0607 8dbd cf6f c3bd e354 073e 3565 823d
000000d0: 434c 16bd a27f c43d 22ff 753d 3dbb 8cbb
000000e0: cd5b f13c 953a 623d e5ba 9cbd 386e 913d
000000f0: 3ea5 3f3d 48db 46bc 6b08 e23d 1071 773d
00000100: 2cb9 5dbc c1d7 13bd b6b3 f8bd de20 cdbc
00000110: fa08 ed3d 4243 cbbd bea4 77bb ef57 9fbd
00000120: a145 1fbd 1cee 3f3d 4210 b43d 2940 37bd
00000130: c337 4dba 4d2c b33d 76ca 123e afe0 963d
00000140: 044d 033e 8701 d6bc 635a 88bd ed6d 00bd
00000150: bc1e dfbd 7b61 593d 8b59 0ebd fa77 233e
00000160: cb83 1fbd 295d 80bd dfcd f03d e7ee 99bc
00000170: a332 abbd 0288 25ba f1d9 7f3d 6a8b bebd
00000180: b650 5f3d c285 1cbe cf1d d43c 6bdc 7d3d
00000190: f154 e0bb 4b3c bfbd aeb7 d73d ab59 523c
000001a0: bbc7 9fbc 4b0a 8dbc 1b79 ffbc 5765 9dbd
000001b0: 58b8 a03d 0ede 843d 5d9a 963d 4ee5 9fbd
000001c0: 6aff 933d ccbf f7bc 25c7 1d3e d277 f5bd
000001d0: c659 18be 9fef 37bc 9871 b63c 6cca 803c
000001e0: ef8a 03be 2543 9abd 3849 edbd 99a8 833d
000001f0: 3756 cfbd 8d08 11bd 0581 a23d de43 733d
00000200: abed debd 6854 fa3d f43a 91bd 4593 233d
00000210: 436b 743d 3df3 803d 3df0 783d 049a 4a3d
00000220: cdc6 853a f09a a13d 0474 1fbd 1bf8 823c
00000230: 7c0c d3bd b259 653d b6a2 e1bd f8ad 99bd
00000240: d2e3 89bd 014d 64bd 2d7c 1a3d 7a0f 74bd
00000250: c7fa 86bd 99f7 84bc 3819 293c 4c3d 9cbd
00000260: d2e6 5dbc 9e5f ffbc b6de 0f3e b6c1 be3d
00000270: a327 00bd ab7b b83b 717d b33d 7b3e 823c
00000280: 258a dabd 7898 7ebb 8ec8 bf3d 6548 573d
00000290: 7f40 83bc a58a 083e a177 593d 07bc 29bd
000002a0: c888 d0bc 4e04 ebbc 70d9 b1bd b2a8 57bd
000002b0: 2f48 9c3d 3872 dabd 6c11 073d d032 93bd
000002c0: 4aff 9e3d 0263 00bc c869 6ebd b009 aebb
000002d0: c9b8 8f3d 8963 d0bd 85a6 e0bc 00cc 693d
000002e0: 68b1 e6bd 4cd5 053e 849b e7bd fb48 423d
000002f0: 7489 0fbd 186d 943d e901 013e 4424 8cbc
00000300: 753f 92bd 3e8a bf3d bcb9 18bd d14d f33d
00000310: dca3 fe3d daf5 96bd 1252 93bd e314 473d
00000320: 3645 68bd 8961 59bd 9498 d6bd 0c02 ddbd
00000330: 2c38 e0bd 22f6 843d 95ab a0bd 885c 66bc
00000340: b0ef 6abc 6eb1 9a3d bb2c ac3d e4dc 07be
00000350: 3bcc 1dbe cea8 4d3d 6329 bd3c 2bbb 15be
00000360: 3522 873c 01c4 763b e430 c93d e769 a53d
00000370: 5edf 413d 3cc1 7dbd a8dd 0fbc 825d 9abd
00000380: f591 35bd df8f dabd 4ba3 5cbd db97 d13c
00000390: 07cf c1bd 5dba eb3d b45a ecbd 29ad 943c
000003a0: 5ff5 38bc 4799 823d d1de aebd 3df9 ff3c
000003b0: 17a6 883d 1236 a33d c89e 063e fdd8 cc3d
000003c0: f0df c13c 54aa a6bd 3df7 ffbc e5df 663d
000003d0: 7d94 0c3d 4ef4 0a3c 677a 483d 053a bcbd
000003e0: 6ff6 143d 9976 443d 2da2 a53d 05e6 603d
000003f0: 2e07 fcbd f8ca 6bbd 60fc a83d c6b5 9bbd
0.027621053 0.03180624 0.06324433 -0.030355046 -0.026396737 0.04626087 -0.11754867 0.03193195
0.0011129556 -0.014506435 -0.01808567 -0.021836422 0.03959298 -0.078049384 -0.0029954202 0.020641241
0.035915587 0.05548376 -0.06815273 -0.01140043 0.09396411 -0.04885227 0.0017073511 0.023960374
-0.010377792 0.01325832 0.025557252 0.00044578713 -0.06440367 0.0050951405 -0.046153534 -0.0064383666
0.08112226 -0.0046525956 0.09580568 -0.0064681177 0.12599885 0.14823496 0.024518969 -0.0035490717
-0.083493724 -0.047694035 0.12754405 -0.0066947164 0.057142287 0.006593239 -0.07340115 -0.026324559
-0.06886105 -0.0954281 0.13215975 0.0636696 -0.036693823 0.095946565 0.060057767 -0.0042947815
0.02946272 0.05523165 -0.07652835 0.07101101 0.046788447 -0.012137242 0.11036762 0.06041056
-0.013532918 -0.03609443 -0.12143652 -0.025040086 0.11573978 -0.09924938 -0.0037787403 -0.07780444
-0.038884763 0.04685794 0.087921634 -0.044738922 -0.00078284385 0.08748684 0.14335045 0.07367074
0.12822348 -0.026123775 -0.06657865 -0.031354833 -0.10894534 0.05307148 -0.034753364 0.15963736
-0.038944047 -0.06267769 0.11758017 -0.018790675 -0.083592676 -0.0006314517 0.062463704 -0.09303935
0.05452033 -0.152854 0.02589312 0.061977785 -0.0068460633 -0.09337672 0.10533081 0.012838761
-0.019504419 -0.017216822 -0.031185677 -0.07685345 0.07847661 0.06487666 0.07353661 -0.07807408
0.07226451 -0.030242823 0.15407999 -0.119857445 -0.14877996 -0.011226564 0.022270963 0.015721522
-0.12845968 -0.07532338 -0.11586231 0.06428642 -0.10123866 -0.035408545 0.07934765 0.059390895
-0.10885175 0.122231305 -0.070913225 0.03993537 0.059672605 0.06296394 0.060775984 0.049463287
0.0010206342 0.0789088 -0.038929 0.015987447 -0.103051156 0.055993743 -0.11017363 -0.07503885
-0.067329064 -0.0557375 0.03771608 -0.059585072 -0.06590801 -0.016231345 0.010320954 -0.07628879
-0.013543801 -0.031173524 0.14049801 0.09314291 -0.0312878 0.0056299767 0.087641604 0.015898934
-0.1067088 -0.0038848203 0.09364425 0.052559275 -0.016021965 0.13334139 0.053092603 -0.041439082
-0.025455847 -0.028688576 -0.08684051 -0.052651115 0.076309554 -0.10666317 0.0329756 -0.07187426
0.07763536 -0.007836105 -0.05820635 -0.0053112134 0.07017667 -0.10175235 -0.027423153 0.057079315
-0.11264306 0.13069648 -0.11308959 0.04743288 -0.035043195 0.072473705 0.12598385 -0.017107137
-0.0714101 0.093525395 -0.037286505 0.11880077 0.124335974 -0.07371111 -0.07193388 0.048603904
-0.05670663 -0.053071532 -0.10478321 -0.10791406 -0.10948214 0.064922586 -0.07845227 -0.014060147
-0.0143393725 0.07553373 0.08406969 -0.13267857 -0.15409939 0.050209813 0.023091024 -0.1462218
0.016495803 0.0037653449 0.09823778 0.0807684 0.04733216 -0.06195186 -0.008780874 -0.075373664
-0.04432865 -0.106719725 -0.053866666 0.025585106 -0.094633155 0.11510155 -0.11540738 0.018148975
-0.01128897 0.063768916 -0.085385926 0.031246776 0.06672304 0.079692975 0.13146508 0.10002325
0.023666352 -0.08137956 -0.031245822 0.056365866 0.034321297 0.008481098 0.048944857 -0.09190754
0.03636783 0.047964666 0.08087573 0.054906864 -0.12306057 -0.057566613 0.08251262 -0.0760303

MLP.8.bias f4 [32]
00000000: be27 08bd cc61 d8bd 7981 c1bc df88 94bd
00000010: 98c5 a23d a764 8f3d ea46 ff3d 01ff 0d3e
00000020: 501d 823d 8463 0b3e 3a2e 7182 98aa f53d
00000030: 5aa9 e4bb 7532 5bbd 79c6 4dbd da3c e5bd
00000040: 9a34 a03c dc43 9c82 fbd2 583b 8430 343d
00000050: 06fb 71bd 62bc 8c3c 128a cebc 4c08 e43d
00000060: 3308 b4bd 9f24 893b 3e6a 3a3d 146b 2abd
00000070: 3a84 b73d 5b26 0abc 866b 463c 2c70 f23c
-0.033241026 -0.10565528 -0.023621308 -0.072526686 0.07947844 0.0700162 0.12464698 0.13866808
0.06353247 0.13612181 -1.771915e-37 0.11995429 -0.006978196 -0.053514916 -0.050238106 -0.11193247
0.019556332 -2.296109e-37 0.0033084739 0.04399158 -0.059077285 0.017179672 -0.025212321 0.11134395
-0.087906264 0.004185274 0.045511477 -0.041606024 0.08960767 -0.008431996 0.0121105965 0.029594503

MLP.10.weight f4 [32, 32]
00000000: 7a72 8c3b 68d4 3e3c 0677 bb3d b932 30bd
00000010: fcbb 073d b098 44bc 62b7 41bd 227d 183d
00000020: 7b72 75bd a1a6 833c 58bb 0600 f4c0 b13c
00000030: 03ab 133d 7e71 94bd a952 d3bc 6ced c03c
00000040: e4d6 d63b d89b 6381 89ba b83b 0354 46bd
00000050: c1fe bdbc c320 8a3c d7f8 173d 9c70 07bd
00000060: 4be9 3abd 21de 24bb 8cbb 103d c61b a2bd
00000070: 7451 22bd db28 05bc 1338 dcbc c0a7 bdbc
00000080: 09e6 3a3c f96f b23c e31d df3d ec4d 893d
00000090: ee3d 343d f1ba de3b c4fe 14be ac51 e6bd
000000a0: 4dd8 903a ff54 963d 3abd 3a82 3b95 803d
000000b0: 9cf9 df3d 9a76 e0bd 5323 17bd ad64 b2bd
000000c0: e932 e53d 3b94 8802 6b5a 633d 08de ad3c
000000d0: 47fc b9bc 3773 0cbd 24ec c7bd 8bf0 23bd
000000e0: d701 dc3d cf80 a0bd 138f 42bd 973d 1abd
000000f0: 3d24 ddbd 0088 c53c bd0f 40bc f438 aabc
00000100: 326b e83d 186b fe3d 9ee8 bcbd d1da 903d
00000110: 970c 603d 6c94 debd 81af d5bd 9aa5 80bd
00000120: 0d91 bb3d d42a 54bd ea25 2c83 8ff5 693d
00000130: 68c4 d1bd 0488 7fbc a8ca ba3b d290 af3d
00000140: 3d6d 253e 8a2a 2c80 4b05 f33d cbe9 ef3d
00000150: 3c82 203c d428 03bd 7617 99bd 9019 1bbd
00000160: 7c81 0b3d a87f 70bd 1a70 34bc c180 9b3a
00000170: 356d e33d 9947 643d 2b14 cc3c 8ccb 1bbd
00000180: d2e3 8d3d 3bdd 1d3d f4cf 283b a624 63bd
00000190: 82df dbbd 8ca4 b83d 4c79 213d ee6e 82bd
000001a0: 6a51 873b 76e9 1cba 778e 2b03 6aa7 f5bb
000001b0: e3af f3bd 22e2 303d 1ffa 0e3d f166 173d
000001c0: 9477 9c3b 30da 8101 18ee 81bd 94d6 db3c
000001d0: 2918 93bb 13a4 17be f6c8 3f3b c59f bfbd
000001e0: 1631 9f3d 569d 33bb 9384 45bd c594 75bd
000001f0: 8f21 3e3d 090b 4bbc ebad 5abc d643 bfbc
00000200: 4e10 0c3c 7dd5 12bd c735 91bd 4246 d4bd
00000210: 5b1b e5bc ec58 363d 11b2 533d f449 d1bc
00000220: cf3a cebd d2ce aabd 57a4 5402 262e 71bc
00000230: 009c d73b f0a0 dcbd e91d e0bc 5310 0e3e
00000240: 9743 6abd eaab 0f82 f548 bc3c 519d ddbb
00000250: 7ca8 55bd 2d32 1abd 48ad 623d c9a9 babd
00000260: 91a4 03be 730a c93d 6af6 cf3c f5d1 d7bc
00000270: 6b3a 88bc 57c2 ccba 8ffa 23bd 31cf a3bb
00000280: 14c3 0dbb 4976 2cbc be9c 883c cfd4 89bd
00000290: a4d7 d03c 80d6 8b3c 22a9 4ebd 95d3 723c
000002a0: a21b 8dbd d54b 75bd 968c ac01 8c9e a8bc
000002b0: 2237 973d 528a 43bd 5db1 4fbc b153 83bb
000002c0: 7816 32bc ba0a 7e82 fe81 17bd b26c ecbc
000002d0: f0f2 b4bc 91a4 813d 3a23 393d c429 ed3c
000002e0: 6e7b 88bd c0cf c3bc 23af 073c f45f a8bc
000002f0: 5a08 adbc 7a82 0fbc b8f7 bbbc 01d1 afbc
00000300: e3d8 533d 70e7 6cbc ddec 64bd acdf 7a3d
00000310: fc4f 923d 4f46 113d c5fc c83d cc32 a3bd
00000320: 8bc5 09bc ed28 983d a797 7502 0aa7 483d
00000330: 4f49 7bbc a206 a4bc 346d 3cbc 5889 3f3d
00000340: a5cc dcbc 1028 3102 eedc 9d3c 6eb5 51bd
00000350: bc7f 16bc 1b62 abbd d262 44bb 17e2 383d
00000360: 7f90 3fbd bd3f 79bd 5151 3f3c b821 9dbd
00000370: efe5 473d 374b d8bb 0450 2cbd b224 c3bc
00000380: f33c 573d 6244 51bc 96db 9c3d e9ac 8dbd
00000390: 52be b0bc a72d 193d 1f34 cc3d ba2f 333e
000003a0: a98c 9dbc 3b6a c3bd 0f22 0483 f4c5 963c
000003b0: 8c32 edbc 7136 893d cd3a 803c 4e53 1fbe
000003c0: a5ad 523d d38d 4d82 f78c cb3c 5295 a9bc
000003d0: 4aad 6f3c e606 82bc b4f3 b03a b980 00be
000003e0: ef98 883d be27 9a3c b0a5 00bd 827d 083d
000003f0: 516e 13bc ede6 bcbb 37d8 203b e079 f43c
0.0042861076 0.011647321 0.09153561 -0.043017123 0.03313826 -0.011999294 -0.047294028 0.03722871
-0.05992363 0.016070666 6.18219e-40 0.021698453 0.03605176 -0.072482094 -0.025796251 0.023550712
0.0065563787 -4.1805128e-38 0.005637471 -0.048419964 -0.023192765 0.016861325 0.037102547 -0.033066377
-0.04563264 -0.0025156813 0.03533511 -0.079154536 -0.03962846 -0.0081274165 -0.026882207 -0.023151278
0.011407384 0.021781908 0.10894372 0.067043155 0.044004373 0.0067971875 -0.1455031 -0.112460464
0.0011050791 0.073404305 -1.3719427e-37 0.062784635 0.10936281 -0.109601215 -0.036898922 -0.08710609
0.11191351 2.0068484e-37 0.05550615 0.021224037 -0.022703303 -0.034289565 -0.09761837 -0.04002432
0.107425384 -0.07837068 -0.047499727 -0.037656393 -0.107979275 0.024112701 -0.011722502 -0.02077911
0.11348571 0.1242277 -0.09224056 0.07072986 0.054699507 -0.10868153 -0.10433865 -0.06281586
0.091585256 -0.051798657 -5.058978e-37 0.05711895 -0.1024254 -0.0155963935 0.005700428 0.08572544
0.16154952 -4.056022e-39 0.11866244 0.11714514 0.009796675 -0.03202136 -0.07475178 -0.037866175
0.034059033 -0.058715492 -0.011013055 0.0011863933 0.11104814 0.055732343 0.02491196 -0.038035914
0.06928219 0.03854106 0.0025758715 -0.055454873 -0.1073599 0.0901576 0.03942232 -0.063688144
0.0041295784 -0.0005985716 5.0415925e-37 -0.007496764 -0.11898782 0.043184407 0.034906503 0.036963407
0.004774997 4.77002e-38 -0.06344241 0.026835717 -0.004488964 -0.14808683 0.002926407 -0.093566455
0.07773034 -0.0027407012 -0.048222136 -0.05995633 0.046418723 -0.012392768 -0.013347129 -0.023347776
0.008548809 -0.03584813 -0.07090335 -0.10364963 -0.027967146 0.044518396 0.05168349 -0.025547959
-0.100698106 -0.08340229 1.5622463e-37 -0.014720475 0.006579876 -0.10772884 -0.027358012 0.13873415
-0.057193365 -1.0555318e-37 0.022984007 -0.0067631383 -0.052162632 -0.037645508 0.055341035 -0.09114415
-0.12855746 0.09816446 0.025386054 -0.026345233 -0.016629418 -0.0015621883 -0.040033873 -0.0049990644
-0.0021631168 -0.010526248 0.016676303 -0.06730043 0.02549345 0.017070055 -0.050454266 0.014820953
-0.06890036 -0.059886772 6.338455e-38 -0.020583414 0.073835626 -0.047739334 -0.012676564 -0.0040077795
-0.010869615 -1.8664051e-37 -0.036989205 -0.028860424 -0.022088498 0.06330217 0.04519961 0.02895058
-0.06664167 -0.023902774 0.008281502 -0.020553567 -0.021122146 -0.008759135 -0.02294527 -0.021461966
0.05172051 -0.014459476 -0.055889953 0.061248466 0.07144162 0.035467442 0.09813837 -0.07968673
-0.008408914 0.07429681 1.8043279e-37 0.048987426 -0.015337302 -0.020022694 -0.011500645 0.04676184
-0.02695305 1.3015404e-37 0.019270387 -0.051198415 -0.009185728 -0.083683215 -0.0029966128 0.04513749
-0.04676866 -0.0608518 0.011677102 -0.07672447 0.048803266 -0.006600763 -0.042068496 -0.023821209
0.05254836 -0.012772651 0.0765907 -0.069177456 -0.021575127 0.037397053 0.09970879 0.17498675
-0.019232111 -0.09541746 -3.883041e-37 0.018404938 -0.028954767 0.06699837 0.015653038 -0.15559122
0.05143513 -1.5101723e-37 0.02484749 -0.020701084 0.014628718 -0.01587243 0.0013500364 -0.12549104
0.06669795 0.018817779 -0.031408012 0.03332282 -0.008998469 -0.005764833 0.0024542937 0.02984327

MLP.10.bias f4 [32]
00000000: 846d c63d 9c8d 6b3d 5743 13bd 95af 433d
00000010: 4706 173e 172c a43d 2a3d 393b e7e8 6dbc
00000020: 2b89 d23b 697b 903c aa02 a4bd a6a4 f1bd
00000030: f56b a43d c798 68bc 9151 2bbd 04cf a43d
00000040: cce1 993d 80d3 b03d af14 6d3a fa62 bbbd
00000050: 18e8 5b3d f34e a83d 40d5 f2bd 8466 08bd
00000060: b282 a6bd 9185 f83d c88d f4bd cfec 5cbd
00000070: 7536 8abd 1c2e 19bd e646 a43c 95af 90bd
0.09688857 0.057508096 -0.035952892 0.04777487 0.14748488 0.08016222 0.0028265216 -0.01452086
0.006425043 0.017636972 -0.08008321 -0.11798982 0.08028404 -0.014196581 -0.041825835 0.080472976
0.075137705 0.086340904 0.00090439146 -0.09149738 0.05368814 0.08218183 -0.118570805 -0.03330089
-0.08130397 0.12134851 -0.11941105 -0.053936776 -0.06748668 -0.03739749 0.020053338 -0.070647396

MLP.11.weight f4 [32]
00000000: 74ef 0f3f 32a4 153f cfd3 223f a94e 103f
00000010: 7b34 123f 94ae ee3e 7ede fc3e fc27 1e3f
00000020: a4c7 203f a20b 233f f622 093f 5440 213f
00000030: e1a7 083f f5f4 803e d2c7 1d3f 4ee2 1c3f
00000040: 6625 fb3e 6c07 2f3f fc9b 223f 7c2d 1d3f
00000050: f563 223f 8550 143f 3406 1a3f 9500 133f
00000060: de27 013f 9758 043f a834 233f 872d 283f
00000070: 7635 123f 0005 ce3e d7b3 213f 2027 163f
0.5622475 0.5845367 0.63604444 0.56370026 0.5711133 0.46617568 0.49388498 0.6177976
0.6280463 0.63689625 0.5356897 0.6298878 0.5338116 0.25186887 0.61633027 0.61282814
0.4905197 0.683707 0.63519263 0.6139753 0.6343377 0.57935363 0.60165715 0.57422763
0.5045146 0.5169768 0.6375222 0.6569447 0.57112825 0.4023819 0.6316504 0.5865345

MLP.11.bias f4 [32]
00000000: c619 233e 7e42 a9bd b6e9 d4bd 23aa 8bbd
00000010: 99b5 0b3e 5691 3c3e 075b aa3d 59ec 71bc
00000020: 1528 f53c 04c5 8b3c 07d4 d43d b18c 80bb
00000030: 4dc4 8f3d c5e3 07be 9316 493d b360 81bd
00000040: 05e8 07bc a0de 37bc 68a5 323d 7bd6 b03c
00000050: 4818 cc3b 2f5c 8c3d a62e e23b a034 04be
00000060: ef11 22be 83e0 af3c 1a43 b7bc 1e3c 343c
00000070: 61ef 0b3e acd4 28be 2357 c73c e678 a63a
0.159278 -0.082646355 -0.10396139 -0.068195604 0.13643493 0.18414816 0.08318143 -0.014765822
0.02992634 0.017061718 0.103920035 -0.0039230217 0.07019863 -0.13270481 0.049093794 -0.06317272
-0.008295064 -0.0112225115 0.043614775 0.021586647 0.0062284805 0.0685352 0.0069025336 -0.129107
-0.15827154 0.02146936 -0.022370864 0.011000661 0.13665535 -0.16487378 0.024333542 0.0012700825

MLP.13.weight f4 [4, 32]
00000000: a349 5c3e 741e 9d3e 737f 8fbd a561 58be
00000010: 201a a3bc b757 bc3d f23d 3fbd 6a96 70be
00000020: 4051 28be a109 76be b238 573e fa85 90bb
00000030: d169 743e e13d 55bc 55fd 633e cdca 74be
00000040: e0ec 1bbe 6cce 7ebc 0e7a 1abe 0ef3 8b3e
00000050: f549 24be 2b8a 89be d0ce 793c 21a6 82bc
00000060: c0e5 afbc 11fa 2c3e 3fbe aa3e 2de7 19be
00000070: c73d 853e 1dd5 2ebe 8649 393e 1382 27be
00000080: f9be de3d d3d8 33be 0d86 b9be 1134 203e
00000090: a8e1 bc3e 6185 463e cda7 f3bd a1ca ec3e
000000a0: b0b8 4dbe 179e afbd 43ff 813e 97d9 aabe
000000b0: aa30 983e 2eb0 53be 3ede 19be e87f 96be
000000c0: 87e6 6b3e b690 b2be cb42 4a3e e8cb 04be
000000d0: f66d 0e3d fcfb e53e 2cfe 73be 5259 afbe
000000e0: ccb2 36be cddb 863e 20e6 87be 5be3 a3be
000000f0: 0d97 3d3e dca1 fbbd cab7 313e 4227 d53e
00000100: d5d1 753e 3a6e 82bb 1f50 f53d ec8e e13a
00000110: be9e 453e 3ef7 203e 6a8c 543e 03f4 62be
00000120: 7765 9a3e 99b9 7e3e 0b8b 533e b538 88bd
00000130: 793b a4bd 8167 92bd 7f26 80be 3b96 833e
00000140: 7192 243e c060 1ebe a049 aebe b844 5cbe
00000150: 39c6 a43e 1ea2 68be 78f0 96bd 8d15 0bbe
00000160: cb7e 38be 11e0 01be 0603 28be c2a3 ba3d
00000170: f2af 693e 612f 05be 3a5c 503e bb07 82be
00000180: 3504 943e 7332 aabe efb2 b7be 013d b2be
00000190: 2b35 8a3e f0a3 973e 8a79 923e 1a85 2bbe
000001a0: d6a6 4f3e bf40 283e ad21 c3bd d21d 953e
000001b0: 8b73 6fbd b028 09be 9bfc b73e f5fe 63bc
000001c0: f903 66be 01ca ab3e a9af b43e 72e0 043e
000001d0: fd98 fdbd ca9a 9a3e 09bd b33e a667 95be
000001e0: 99e1 a6be b0eb 75be 0a52 76bd a9ad b43e
000001f0: 3b7e 953d fc37 47be 9dfc dfbe 3e8c a3bd
0.21512465 0.30687296 -0.07006731 -0.21130998 -0.019909918 0.09196418 -0.046689935 -0.23494878
-0.16437244 -0.2402711 0.21017721 -0.0044105025 0.23868491 -0.013015241 0.22264607 -0.23905487
-0.1522708 -0.0155521445 -0.15085623 0.27333874 -0.16043837 -0.26863226 0.015247062 -0.015948357
-0.021471858 0.16892268 0.3334827 -0.15029593 0.26023695 -0.17073484 0.18094453 -0.16358213
0.10876269 -0.1756318 -0.36235085 0.15644862 0.36890912 0.19386818 -0.1189724 0.46248344
-0.20089984 -0.08575075 0.25390062 -0.33369133 0.29724628 -0.20672676 -0.15026185 -0.2939446
0.23037158 -0.3487603 0.19752042 -0.12968409 0.034772836 0.4491881 -0.23827428 -0.34247833
-0.17841643 0.2633957 -0.2654276 -0.32009396 0.18514653 -0.122867316 0.17355266 0.41631514
0.24005826 -0.003980425 0.119781725 0.0017208732 0.19298837 0.15719315 0.20756689 -0.22163396
0.30155537 0.24875487 0.2065851 -0.06651441 -0.08019156 -0.07148648 -0.2502937 0.25700554
0.16071488 -0.15466595 -0.34040546 -0.21510589 0.32182482 -0.22718093 -0.073700845 -0.1358244
-0.18017118 -0.12683131 -0.16407403 0.091132656 0.22821024 -0.13006355 0.20347682 -0.25396523
0.2890946 -0.33241615 -0.35878703 -0.34812167 0.2699369 0.29617262 0.28608352 -0.16749993
0.20278487 0.16430949 -0.095279075 0.29124314 -0.0584598 -0.13394427 0.3593491 -0.013915767
-0.22462453 0.33552554 0.35290268 0.12976244 -0.12382696 0.3019622 0.3510516 -0.2918064
-0.32593992 -0.24015689 -0.060136832 0.35288742 0.07299467 -0.1945495 -0.43747416 -0.079857334

MLP.13.bias f4 [4]
00000000: 7ec6 083e 02eb 1d3e f769 19bd f72c 063e
0.13356969 0.1542168 -0.03745457 0.1310309
